…
    <span class="n">torch_dtype</span><span class="o">=</span><span class="sh">'</span><span class="s">auto</span><span class="sh">'</span><span class="p">,</span>
    <span class="n">device_map</span><span class="o">=</span><span class="n">dev</span><span class="p">,</span>
    <span class="n">trust_remote_code</span><span class="o">=</span><span class="bp">True</span><span class="p">,</span>
<span class="p">)</span>
<span class="nf">print</span><span class="p">(</span><span class="n">model</span><span class="p">)</span></code></pre>
</div>
</div>
<div class="listingblock">
<div class="content">
<pre class="rouge highlight"><code data-lang="console"><span class="go">Phi3ForCausalLM(
  (model): Phi3Model(
    (embed_tokens): Embedding(200064, 3072, padding_idx=199999)
    (layers): ModuleList(
      (0-31): 32 x Phi3DecoderLayer(
        (self_attn): Phi3Attention(
          (o_proj): Linear(in_features=3072, out_features=3072, bias=False)
          (qkv_proj): Linear(in_features=3072, out_features=5120, bias=False)
        )
        (mlp): Phi3MLP(
          (gate_up_proj): Linear(in_features=3072, out_features=16384, bias=False)
          (down_proj): Linear(in_features=8192, out_features=3072, bias=False)
          (activation_fn): SiLU()
        )
        (input_layernorm): Phi3RMSNorm((3072,), eps=1e-05)
        (post_attention_layernorm): Phi3RMSNorm((3072,), eps=1e-05)
        (resid_attn_dropout): Dropout(p=0.0, inplace=False)
        (resid_mlp_dropout): Dropout(p=0.0, inplace=False)
      )
    )
    (norm): Phi3RMSNorm((3072,), eps=1e-05)
    (rotary_emb): Phi3RotaryEmbedding()
  )
  (lm_head): Linear(in_features=3072, out_features=200064, bias=False)
)</span></code></pre>
</div>
</div>
</li>
</ul>
</div>
</div>
<div class="sect2">
<h3 id="probability-distribution-samplingdecoding">3.3. Probability Distribution (Sampling/Decoding)</h3>
<div class="paragraph">
<p>Language models use a probability distribution to determine the next token, which  is called the <em>decoding strategy</em>.</p>
</div>
…
    <span class="n">device_map</span><span class="o">=</span><span class="n">dev</span><span class="p">,</span>
<span class="p">)</span></code></pre>
</div>
</div>
<div class="listingblock">
<div class="content">
<pre class="rouge highlight"><code data-lang="py"><span class="n">model</span><span class="p">.</span><span class="n">vision_model</span>  <span class="c1"># vision transformer in the loaded BLIP-2 model.</span></code></pre>
</div>
</div>
<div class="listingblock">
<div class="content">
<pre class="rouge highlight"><code data-lang="console"><span class="go">Blip2VisionModel(
  (embeddings): Blip2VisionEmbeddings(
    (patch_embedding): Conv2d(3, 1408, kernel_size=(14, 14), stride=(14, 14))
  )
  (encoder): Blip2Encoder(
    (layers): ModuleList(
      (0-38): 39 x Blip2EncoderLayer(
        (self_attn): Blip2Attention(
          (dropout): Dropout(p=0.0, inplace=False)
          (qkv): Linear(in_features=1408, out_features=4224, bias=True)
          (projection): Linear(in_features=1408, out_features=1408, bias=True)
        )
        (layer_norm1): LayerNorm((1408,), eps=1e-06, elementwise_affine=True)
        (mlp): Blip2MLP(
          (activation_fn): GELUActivation()
          (fc1): Linear(in_features=1408, out_features=6144, bias=True)
          (fc2): Linear(in_features=6144, out_features=1408, bias=True)
        )
        (layer_norm2): LayerNorm((1408,), eps=1e-06, elementwise_affine=True)
      )
    )
  )
  (post_layernorm): LayerNorm((1408,), eps=1e-06, elementwise_affine=True)
)</span></code></pre>
</div>
</div>
<div class="listingblock">
<div class="content">
<pre class="rouge highlight"><code data-lang="py"><span class="n">model</span><span class="p">.</span><span class="n">language_model</span>  <span class="c1"># text generative model in the loaded BLIP-2 model.</span></code></pre>
</div>
</div>
<div class="listingblock">
<div class="content">
<pre class="rouge highlight"><code data-lang="console"><span class="go">OPTForCausalLM(
  (model): OPTModel(
    (decoder): OPTDecoder(
      (embed_tokens): Embedding(50304, 2560, padding_idx=1)
      (embed_positions): OPTLearnedPositionalEmbedding(2050, 2560)
      (final_layer_norm): LayerNorm((2560,), eps=1e-05, elementwise_affine=True)
      (layers): ModuleList(
        (0-31): 32 x OPTDecoderLayer(
          (self_attn): OPTSdpaAttention(
            (k_proj): Linear(in_features=2560, out_features=2560, bias=True)
            (v_proj): Linear(in_features=2560, out_features=2560, bias=True)
            (q_proj): Linear(in_features=2560, out_features=2560, bias=True)
            (out_proj): Linear(in_features=2560, out_features=2560, bias=True)
          )
          (activation_fn): ReLU()
          (self_attn_layer_norm): LayerNorm((2560,), eps=1e-05, elementwise_affine=True)
          (fc1): Linear(in_features=2560, out_features=10240, bias=True)
          (fc2): Linear(in_features=10240, out_features=2560, bias=True)
          (final_layer_norm): LayerNorm((2560,), eps=1e-05, elementwise_affine=True)
        )
      )
    )
  )
  (lm_head): Linear(in_features=2560, out_features=50304, bias=False)
)</span></code></pre>
</div>
</div>
<div class="listingblock">
<div class="content">
<pre class="rouge highlight"><code data-lang="py"><span class="c1"># preprocess the image
</span><span class="n">image_inputs</span> <span class="o">=</span> <span class="nf">blip_processor</span><span class="p">(</span><span class="n">image</span><span class="p">,
…
